models/butuska.pth (torch, 105152 bytes, 4 tensors)

linear1.weight f4 [128, 100]
0	0x3c843afa	0.016141403
1	0xbd45d423	-0.048298012
2	0x3d71a9ed	0.058999944
3	0x3dafa8cd	0.08577118
4	0xbd35aa07	-0.044351604
5	0x3d724e4d	0.059156705
6	0xbd1942da	-0.03741727
7	0x3d2b3033	0.041794013
8	0x3ca3fa4d	0.020016814
9	0x3dbbcc13	0.091697834
10	0xbc19ea73	-0.009394276
11	0x3d2095f7	0.039205518
12	0xbce8f2ed	-0.028436149
13	0xbd61d1cd	-0.055131722
14	0xbd81e732	-0.06342925
15	0xbce3a880	-0.027790308
16	0xbdc73840	-0.09727526
17	0xbc3a94da	-0.011388028
18	0xbdb4f32a	-0.08835442
19	0xbdb08480	-0.08619022
20	0xbda99df5	-0.08282081
21	0xbd8b28b7	-0.06794875
22	0xbd807b85	-0.062735595
23	0xbbebcf00	-0.007196307
24	0x3c79d0c0	0.015247524
25	0xbd927577	-0.07151311
26	0xbd30197d	-0.042993058
27	0x3d0f6e80	0.03501749
28	0x3d09f390	0.033679545
29	0x3db870db	0.090059005
30	0x3a968000	0.0011482239
31	0x3d1ac52d	0.037785698
32	0x3d15f753	0.03661282
33	0x3d2e5ff0	0.042571962
34	0xbdc168f2	-0.09443845
35	0xbd1e8c10	-0.038707793
36	0x3b7a7a00	0.003821969
37	0x3d8ffa35	0.07030145
38	0xbdb461f8	-0.088077486
39	0xbd544bf0	-0.051830232
40	0xbd310f80	-0.043227673
41	0x3d76f53a	0.06029246
42	0x3dafd5a3	0.0858567
43	0xbb86bd67	-0.004111934
44	0xbd291500	-0.041279793
45	0xbd619523	-0.05507387
46	0xbdbf3995	-0.09337155
47	0xbdcc780f	-0.09983837
48	0xbd1e805a	-0.038696624
49	0x3cbe1c73	0.023206925
50	0x3ca14bd3	0.019689476
51	0xbca2047a	-0.019777525
52	0x3cb4e8b3	0.022083616
53	0x3db1fcba	0.08690782
54	0x3d828c08	0.06374365
55	0xbd9a1815	-0.075241245
56	0xbd36ab0d	-0.04459672
57	0xbdcc16b8	-0.09965271
58	0x3cebf2c7	0.028802289
59	0xbd9bf6bd	-0.07615421
60	0x3bceaf00	0.0063074827
61	0x3dad56cf	0.08463823
62	0x3cde0cba	0.027105678
63	0x3d816f12	0.06320013
64	0x3d91325f	0.07089686
65	0x3cda690d	0.02666142
66	0x3c120fa7	0.008914865
67	0x3a67ae67	0.00088379387
68	0x3d618d3d	0.055066336
69	0xbcee7967	-0.029110624
70	0xbc1be373	-0.009514677
71	0x3d45c327	0.048281815
72	0x3d419fad	0.04727142
73	0x3d8d3378	0.068945825
74	0xbc986e60	-0.018607318
75	0xbd5e7280	-0.054308414
76	0x3c5a0b80	0.013308406
77	0x3c61715a	0.013759935
78	0xbc9f7107	-0.019463075
79	0x3d1dfd10	0.038571417
80	0x3db8cc63	0.09023359
81	0xbd4c86ca	-0.049933232
82	0x3d748d7a	0.059705235
83	0x3da9244f	0.082588784
84	0x3d162390	0.03665501
85	0x3cc3b447	0.023889674
86	0xba5a08cd	-0.00083173515
87	0xbcf339c7	-0.029690636
88	0xbd42b427	-0.047535088
89	0xbc8ec7f3	-0.017429328
90	0x3852cccd	5.0258637e-05
91	0xbd935898	-0.07194632
92	0xbdbf507a	-0.093415216
93	0xbd501d83	-0.050809395
94	0x3d923ca8	0.071404755
95	0x3c3d3bf3	0.011549938
96	0xbd162f10	-0.036665976
97	0x3d987055	0.07443301
98	0x3dc40378	0.09570974
99	0xbdc75fba	-0.09735055
100	0xbc8a9cfa	-0.016920555
101	0xbd917325	-0.0710204
102	0xbcb6f073	-0.022331452
103	0x3b2c2ecd	0.0026273013
104	0xbd20f720	-0.039298177
105	0xbce03b67	-0.027372075
106	0x3cd22860	0.025654018
107	0xbc736e1a	-0.014857793
108	0x3bff5ae7	0.007792819
109	0xbda198b7	-0.07890456
110	0xbd8557ab	-0.06510862
111	0x3cd09573	0.025461888
112	0x3d97e265	0.07416228
113	0xbdca6a32	-0.098835364
114	0xbd13fcda	-0.03612981
115	0x3d70f773	0.058829736
116	0xbd4170f7	-0.047226872
117	0x3dc6d167	0.09707909
118	0x3db27a1b	0.08714696
119	0xbd139eed	-0.036040235
120	0x3dac0d1d	0.08400939
121	0xbc9eeb13	-0.019399201
122	0x3cf08ad3	0.029363072
123	0xbd005787	-0.031333473
124	0xbd5069b0	-0.05088204
125	0xbdb78812	-0.089615
126	0xbc2c9fa7	-0.010536111
127	0xbd4d2c3d	-0.050091017
128	0xbcfc35da	-0.030787397
129	0x3db74cb0	0.08950174
130	0x3db8d5d0	0.090251565
131	0xbdaa22b8	-0.08307403
132	0x3ce5a627	0.02803333
133	0xbdbc597b	-0.091967545
134	0xbdb90333	-0.09033813
135	0x3c8c726d	0.017144406
136	0xbd2c1330	-0.042010486
137	0xbd432040	-0.047638178
138	0xbc84f61a	-0.016230632
139	0x3d813a92	0.063099995
140	0xbd282aa0	-0.041056275
141	0xbdaf4c97	-0.0855953
142	0x3db13517	0.08652704
143	0x3d883cda	0.066522315
144	0x3ca227f3	0.01979444
145	0xbd8850fd	-0.06656072
146	0x3d1e00ba	0.03857491
147	0xbd47de7d	-0.048796166
148	0xbd1c3567	-0.038136866
149	0x3ca000e7	0.01953168
150	0xbd6ca0dd	-0.0577706
151	0xbdb0a815	-0.08625809
152	0x3d2b9190	0.041886866
153	0xbd7df7ba	-0.06200383
154	0xbc232e0d	-0.00995971
155	0x3d5b5447	0.05354717
156	0x3d1a72e7	0.037707236
157	0xbd8e4f52	-0.06948723
158	0x3d9b8a68	0.07594758
159	0x3d659243	0.05604769
160	0x3d755b7a	0.059901692
161	0xb922f667	-0.00015541316
162	0xbd076ff7	-0.033065762
163	0x3c8b0f07	0.016974939
164	0x3c20384d	0.009779048
165	0x3c8d6dc0	0.017264247
166	0xbcbff8c0	-0.023434043
167	0x3dab92b7	0.08377593
168	0x3c4e8e5a	0.012607181
169	0xbc8a4c67	-0.016882135
170	0xbc3a761a	-0.011380697
171	0xbd2c7aa3	-0.042109143
172	0x3d18d477	0.037311997
173	0x3d1f051d	0.038823236
174	0x3d47809d	0.04870664
175	0xbccc32cd	-0.024926567
176	0xbd1dfdfa	-0.03857229
177	0xbdc37aa8	-0.09544879
178	0x3dc5afda	0.09652682
179	0x3d65e2f7	0.056124654
180	0xbd2fa487	-0.042881515
181	0xbd967b87	-0.0734778
182	0xbca4a38d	-0.020097518
183	0xbb9a4267	-0.004707623
184	0x3c6b9233	0.014378118
185	0xbd3e501a	-0.04646311
186	0xbd838ac3	-0.06422951
187	0x3db4a65b	0.08820792
188	0x3d83652b	0.06415781
189	0xbd63f043	-0.055649053
190	0xbd118313	-0.035525393
191	0x3cb30207	0.021851553
192	0x3b9d1ee7	0.0047949436
193	0xbdb9046b	-0.09034046
194	0xbce20bad	-0.027593458
195	0x3d9d17fb	0.076705895
196	0xbceb34f3	-0.028711772
197	0x3db08c55	0.08620516
198	0xbd113f2a	-0.03546063
199	0x3d05c843	0.032661688
200	0xbd8cceef	-0.06875407
201	0x3db866a8	0.09003955
202	0xbc658300	-0.014008284
203	0x3c4aa4c0	0.012368381
204	0xbc706633	-0.014672804
205	0x3d78e5e0	0.0607661
206	0x3d63423a	0.05548308
207	0x3d5e651a	0.054295637
208	0xbb5b3f9a	-0.0033454658
209	0xbd845f38	-0.06463474
210	0x3c8f1967	0.017468167
211	0x3dcba508	0.099435866
212	0x3d4fd67d	0.05074166
213	0x3cff4cad	0.031164492
214	0x3d3fc7e7	0.0468215
215	0xbccf3ea7	-0.02529843
216	0x3ca2635a	0.019822765
217	0x3c954487	0.018221153
218	0xbc920520	-0.01782471
219	0xbdcc9940	-0.099901676
220	0xbd602bed	-0.05472939
221	0xbd8de315	-0.06928078
222	0x3d9ded63	0.077112935
223	0x3d8943eb	0.067024074
224	0x3b804e80	0.003915608
225	0x3c6ed44d	0.014576984
226	0x3c5fc85a	0.013658607
227	0xbdaacd1f	-0.08339905
228	0xbd876e37	-0.06612819
229	0xbd96265d	-0.07331536
230	0x3bf859b3	0.0075790524
231	0x3c4a4127	0.012344635
232	0xbc02ef73	-0.007991659
233	0x3d78f42d	0.06077974
234	0xbc02551a	-0.00795486
235	0xbda558ff	-0.08073615
236	0xbd48aacd	-0.048991013
237	0xbd9b1ccf	-0.07573854
238	0x3dae6de8	0.08517057
239	0xbd8f8f07	-0.07009702
240	0x3d0c271a	0.034216978
241	0x3d465237	0.04841825
242	0x3d7a51d3	0.06111319
243	0x39fafe67	0.0004787326
244	0xbc20bc5a	-0.0098105315
245	0x3b49769a	0.0030740858
246	0xbcbf67ad	-0.023364866
247	0xbd3d6147	-0.04623535
248	0xbcea9d80	-0.028639555
249	0xbcc1a087	-0.023636116
250	0x3d84891f	0.06471466
251	0x3c1b308d	0.009472025
252	0xbd9cf3cb	-0.07663687
253	0x3dc922d2	0.098210946
254	0x3cc275a0	0.023737729
255	0x3d9a885a	0.07545538

linear1.bias f4 [128]
0	0xbd5dce2d	-0.054151703
1	0xbd8ead43	-0.06966641
2	0x3ce5fe6e	0.028075423
3	0x3cc5bd96	0.024138253
4	0xbcd0ef00	-0.02550459
5	0x3bab9c78	0.0052371584
6	0xbd49c9f7	-0.049264874
7	0xbb84419a	-0.0040361406
8	0x3d54f8e6	0.05199518
9	0xbdb12917	-0.086504154
10	0x3b602f03	0.0034207709
11	0x3dab464e	0.08363019
12	0x3d88d1b0	0.0668062
13	0x3d952177	0.072817735
14	0xbcc6596d	-0.024212563
15	0xbd818710	-0.06324589
16	0x3cfbe45a	0.030748535
17	0x3d061974	0.032739118
18	0x3c28b803	0.010297778
19	0x3d40ad89	0.047040496
20	0x3d4e0dc8	0.05030611
21	0x3d08c870	0.033394277
22	0xbd9979b8	-0.07493919
23	0xbda285cb	-0.07935675
24	0x3ba9ab29	0.0051778746
25	0xb6bae753	-5.5701616e-06
26	0x3c69605c	0.014244165
27	0xbdcccaa2	-0.09999587
28	0x3da8aad0	0.08235705
29	0x3d81b5ff	0.06333541
30	0xbc1da3cd	-0.009621573
31	0x3c72bbaa	0.01481525
32	0xbd4d01e3	-0.050050627
33	0xbd925463	-0.07145002
34	0x3d3d6695	0.046240408
35	0xbdace7a2	-0.08442618
36	0x3cac6092	0.021042142
37	0x3d97fde2	0.07421471
38	0x3ce6b0ef	0.02816054
39	0xbdcbe725	-0.09956197
40	0xbd3c517a	-0.04597614
41	0x3c1797ce	0.009252502
42	0xbd7eda40	-0.06221986
43	0x3da9897f	0.082781784
44	0xbbe83380	-0.0070862174
45	0xbc9926f3	-0.01869533
46	0x3d6c4b17	0.0576888
47	0x3d8c3af1	0.0684718
48	0x3d7de4b4	0.061985686
49	0xbdbf75cb	-0.09348639
50	0xbcfc5d73	-0.030806279
51	0x3d878d65	0.06618766
52	0xbb5fe700	-0.0034164786
53	0x3c32ec60	0.010920614
54	0x3d9cad58	0.0765025
55	0xb65752e6	-3.208575e-06
56	0xbb247ccd	-0.00250988
57	0x3dab41c3	0.083621524
58	0xbd6a9310	-0.057269156
59	0xbd320eed	-0.043471266
60	0xbd6efd3d	-0.058346976
61	0x3d8129d7	0.063068084
62	0xbc87c52d	-0.016573513
63	0xbd4bcb9a	-0.049754716
64	0x3bc166ac	0.005902132
65	0x3d90cfdb	0.07070895
66	0x3bab9de3	0.0052373274
67	0x3dbf2c66	0.0933464
68	0x3db4022e	0.08789478
69	0x3c6f2c96	0.014598032
70	0x3dc0a8e9	0.09407217
71	0x3daf5fca	0.08563192
72	0x3cde9950	0.027172714
73	0x3d60115c	0.054704055
74	0xbc176a67	-0.009241677
75	0x3d2f762a	0.0428373
76	0x3c4b4fd1	0.012409166
77	0xbdb48cad	-0.08815894
78	0x3c98d5a9	0.018656569
79	0x3d7d5e2d	0.06185739
80	0x3dacd1c9	0.08438451
81	0xbdc8b05b	-0.09799262
82	0xbd686dfa	-0.056745507
83	0x3cd2f559	0.025751757
84	0xbc6a5dc0	-0.014304578
85	0xbc2bc373	-0.01048361
86	0x3d84414f	0.06457769
87	0x3d6aef29	0.057356987
88	0x3dbe8143	0.093019985
89	0xbd3c087a	-0.04590652
90	0x3d79f255	0.06102212
91	0x3d900a43	0.07033207
92	0x3d0fe791	0.03513295
93	0x3da0619d	0.07831118
94	0x3daf5014	0.085601956
95	0x3d212f12	0.03935153
96	0xbdb9c10f	-0.09070026
97	0x3daca02e	0.08428989
98	0xbcc2cf13	-0.023780381
99	0xbda6fea3	-0.08154037
100	0xbdb44e4b	-0.08803996
101	0x3c70eca1	0.014704854
102	0xbdc02563	-0.09382131
103	0x3dcfd138	0.10147327
104	0x3d51297e	0.05106496
105	0x3c9b9c0e	0.018995311
106	0x3d93c580	0.072154045
107	0xbd9f7d17	-0.07787531
108	0x3bdf87af	0.0068215947
109	0xbce7c3c7	-0.028291596
110	0x3dcf20e5	0.10113696
111	0xbdae03a0	-0.08496785
112	0x3d8fa1c9	0.0701328
113	0xbdbe8a52	-0.09303726
114	0xbdc6b180	-0.09701824
115	0x3d470e15	0.048597414
116	0xbd449a2a	-0.047998585
117	0x3d39ebd3	0.045390915
118	0x3daf89da	0.08571215
119	0x3bc3d86d	0.0059767277
120	0x3dad0cbe	0.08449696
121	0xbd8e09bd	-0.06935451
122	0xbda63ae8	-0.08116704
123	0x3db77f7e	0.08959864
124	0x3c88fd2a	0.01672228
125	0x3d8bcdd5	0.06826369
126	0xbcafdda7	-0.021467997
127	0x3c661aa2	0.014044436

linear2.weight f4 [100, 128]
0	0x3d9710f1	0.07376278
1	0xbd9f7d13	-0.07787528
2	0x3c938d8e	0.018011834
3	0x3d6efedb	0.058348518
4	0xbd0c07b7	-0.034187045
5	0x3da2a987	0.07942491
6	0xbd748fc3	-0.059707414
7	0x3d14e68f	0.03635269
8	0x3d80f55b	0.06296798
9	0xbd56ed4e	-0.052472405
10	0xbce307f2	-0.02771375
11	0x3d0b972a	0.03407971
12	0x3d2e4203	0.042543422
13	0xbd200618	-0.03906831
14	0xbbe6f26f	-0.0070479433
15	0xbd877651	-0.06614364
16	0x3ddd11e4	0.10794428
17	0x3d2809ed	0.04102509
18	0xbc125c0e	-0.00893308
19	0xbd1d83e7	-0.03845587
20	0xbc293f84	-0.010330085
21	0xbd69666b	-0.05698244
22	0x3d2ae8f6	0.041726075
23	0xbd0933ed	-0.033496786
24	0xbd3345d7	-0.043767776
25	0x3bf0d88f	0.0073500345
26	0xbd52fe5f	-0.05151212
27	0xbd87469c	-0.066052645
28	0xbd69be0b	-0.057066005
29	0xbc62e1e1	-0.013847799
30	0xbca0ab19	-0.019612836
31	0xbd72cf90	-0.05927998
32	0x3d502e92	0.050825663
33	0xbc8f90ea	-0.017525155
34	0xbd71df76	-0.059051
35	0x3ccd019e	0.025025185
36	0x3d880652	0.066418305
37	0x3dcb8ef2	0.09939374
38	0x3d0d73ed	0.034534384
39	0x3d75ef5f	0.060042735
40	0xbd4469fd	-0.04795264
41	0xbcb0b50e	-0.021570709
42	0x3d2b5386	0.0418277
43	0x3ccb094c	0.024784707
44	0x3d532152	0.05154545
45	0x3d3addcb	0.045621675
46	0xbd1a9c98	-0.037746996
47	0xbd505ed0	-0.05087167
48	0x3dafddb3	0.08587208
49	0x3d803fdb	0.062621795
50	0x3d11b757	0.035575237
51	0xbd5e2036	-0.054229937
52	0x3d3005fb	0.042974453
53	0xbd205cbd	-0.039150942
54	0x3c2ae394	0.010430235
55	0xbba22932	-0.0049487585
56	0xbc99e1bc	-0.018784396
57	0xbca9bc3b	-0.020719638
58	0x3d77a77b	0.060462456
59	0x3d12ffbf	0.03588843
60	0x3dabe78f	0.08393776
61	0xbcd5fc71	-0.02612135
62	0xbd4487a1	-0.04798091
63	0xbd070317	-0.03296193
64	0xbcb2b9ce	-0.021817114
65	0xbc6f0207	-0.014587886
66	0x3d26c050	0.040710747
67	0x3dad9c6e	0.08477102
68	0xbd0778ca	-0.033074178
69	0x3d8a5c90	0.06755936
70	0xbcece014	-0.028915443
71	0x3d9b7c08	0.075920165
72	0x3db68700	0.08912468
73	0xbacacca0	-0.001547236
74	0x3d85ebe8	0.06539136
75	0xbcbc29e8	-0.022969201
76	0xbccc28f9	-0.024921881
77	0xbd2f03e0	-0.042728305
78	0x3d9bea96	0.07613103
79	0x3d557ebb	0.052122813
80	0x3d9cf8b3	0.07664623
81	0xbdb06fcf	-0.08615076
82	0xb9989a3c	-0.00029106613
83	0x3da48676	0.08033459
84	0xbd6df153	-0.058091473
85	0x3d8f9902	0.07011606
86	0x3d4e4074	0.050354436
87	0xbc1c3fa3	-0.009536657
88	0x3ba6cc92	0.0050903047
89	0xbd3e3eb2	-0.04644651
90	0x3d83580d	0.06413279
91	0x3d988aa7	0.07448321
92	0x3ceba9b4	0.028767444
93	0xbcd480fd	-0.025940413
94	0x3d6fe8d0	0.058571637
95	0x3d2ae50d	0.041722346
96	0xbb36fe5b	-0.0027922604
97	0x3d6e7ea3	0.05822624
98	0x3d0bfc29	0.034176026
99	0x3d1ce1c1	0.038301233
100	0xbd626790	-0.055274546
101	0xbb5e7c9b	-0.0033948782
102	0x3c7493a7	0.014927781
103	0x3dbea626	0.09309034
104	0xbbab36ab	-0.005225023
105	0x3ddb2eaf	0.107022636
106	0x3db58317	0.08862894
107	0xbcdbe2fb	-0.026841631
108	0x3ccd068d	0.025027538
109	0x3d4c1378	0.049823254
110	0x3cae70ea	0.021294076
111	0x3da92548	0.08259064
112	0xbbcb6e1c	-0.0062081944
113	0x3dac218d	0.08404837
114	0xbd143c5b	-0.036190372
115	0x3d4c9b14	0.04995258
116	0xbcc65f7b	-0.02421545
117	0xbd58961b	-0.052877527
118	0x3cdb720c	0.02678778
119	0xbd042c36	-0.032268725
120	0xbd6cc42a	-0.057804264
121	0x3da50d94	0.080592304
122	0x3d526ce0	0.051373363
123	0xbd3b27c2	-0.045692213
124	0x3d8ab9b6	0.06773703
125	0x3dabf273	0.08395853
126	0xbcbfd195	-0.023415366
127	0x3dd64a36	0.10463373
128	0xbd92538e	-0.07144843
129	0xbd9cf52c	-0.0766395
130	0x3d8cb748	0.068708956
131	0x3d2d0c64	0.042248145
132	0x3db3d7af	0.08781373
133	0xbd6437a2	-0.055717118
134	0x3dabe0c8	0.08392483
135	0xbd932fad	-0.07186828
136	0x3d34270f	0.04398256
137	0x3d93d109	0.07217605
138	0x3d288aba	0.041147925
139	0xbd837252	-0.06418289
140	0xbc88a3ae	-0.016679611
141	0x3be45b1b	0.0069688684
142	0x3d8bab2a	0.06819756
143	0x3bf5b1f1	0.007498019
144	0x3d43e9a0	0.047830224
145	0xbd8b944d	-0.068153955
146	0x3d037791	0.03209645
147	0x3da28b19	0.07936687
148	0xbc88ee0e	-0.016715076
149	0xbcffd230	-0.031228155
150	0x3c29b104	0.010357145
151	0x3d8b1228	0.067905724
152	0x3bba4383	0.0056843176
153	0x3c24ab37	0.010050586
154	0x3d49cd46	0.04926803
155	0xbd75950d	-0.0599566
156	0x3c2445e3	0.010026428
157	0xbc0d151d	-0.008610991
158	0xbb4e9073	-0.0031519204
159	0xbd42a7c2	-0.047523268
160	0x3d44bf0a	0.04803375
161	0xbc2a8c16	-0.010409376
162	0xba57391d	-0.00082101097
163	0xbda130bb	-0.07870623
164	0xbda3f9eb	-0.080066524
165	0xbc63771f	-0.013883381
166	0xbc3b2ed1	-0.011424736
167	0x3b182535	0.0023215536
168	0x3d964cb6	0.0733885
169	0x3be92898	0.007115435
170	0xbc14af3f	-0.009074985
171	0x3d8d8b82	0.06911375
172	0x3ca7213e	0.020401593
173	0xbc09b8b2	-0.008405851
174	0xbd49961e	-0.04921543
175	0xbd98f6f1	-0.07468975
176	0xbd86ef56	-0.065886185
177	0xbd12c1fc	-0.03582953
178	0xbda1b192	-0.07895197
179	0x39429882	0.00018558095
180	0x3da64104	0.081178695
181	0xbd955a0c	-0.07292566
182	0x3963a474	0.0002170967
183	0xbc2f352c	-0.0106938295
184	0x3d655a28	0.055994183
185	0xbc9fcf37	-0.019507987
186	0x3d7d107b	0.061783295
187	0x3d4d4af6	0.050120316
188	0x3bd409c2	0.00647089
189	0x3c47d962	0.012197824
190	0xbd95c357	-0.07312649
191	0xbd19793d	-0.037469137
192	0xbd0fc33d	-0.035098303
193	0xbd5540ac	-0.05206363
194	0x3d272fe8	0.04081717
195	0x3dc15a07	0.094409995
196	0x3daf330c	0.08554658
197	0x3db8e643	0.09028294
198	0xbc82b801	-0.01595688
199	0x3d41092b	0.047127884
200	0xbcd9d97e	-0.026592966
201	0xbd7ecaae	-0.06220501
202	0x3da29cde	0.07940076
203	0x3c327b9a	0.010893727
204	0xbd4f5d2c	-0.050625965
205	0x3d9c114b	0.07620486
206	0x3d20d8ee	0.03926938
207	0x3d3125f8	0.0432491
208	0x3c1c69ff	0.009546756
209	0xbccaca30	-0.024754614
210	0xbd3e9b8d	-0.046535064
211	0xbd75a890	-0.059975207
212	0xbd9017b7	-0.07035773
213	0xbbb8e576	-0.0056425883
214	0xbd046436	-0.03232213
215	0xbda3f387	-0.080054335
216	0x3d3febee	0.04685586
217	0xbda9deee	-0.082944736
218	0x3c9b8371	0.018983575
219	0x3d8670d0	0.06564486
220	0x3cff7138	0.031181917
221	0x3cbb988d	0.02289989
222	0x3d91295b	0.07087966
223	0x3bd0c074	0.0063705985
224	0x3d719523	0.05898012
225	0x3d8a1539	0.06742329
226	0x3d85eb30	0.06538999
227	0x3cb66cd3	0.022268688
228	0x3d62d147	0.055375364
229	0xbc9b6f81	-0.018974068
230	0xbd86ce65	-0.065823354
231	0xbda29619	-0.07938785
232	0x3d40da80	0.047083378
233	0xba8df43c	-0.0010830234
234	0x3ca06df9	0.019583689
235	0xbc4b1053	-0.012394029
236	0x3cbe7879	0.023250805
237	0x3d62c1d8	0.055360645
238	0xbd7b5124	-0.06135668
239	0xbda3debd	-0.08001468
240	0xbd399d6c	-0.045316145
241	0x3db27ddd	0.08715413
242	0xbc98700d	-0.018608117
243	0x3d935886	0.07194619
244	0x3d7ace11	0.061231676
245	0xbc01b93f	-0.007917701
246	0xbd6057a8	-0.054771096
247	0x3d736f7a	0.059432484
248	0x3da39081	0.07986546
249	0x3d90e854	0.07075563
250	0x3db14e17	0.086574726
251	0xbd0531ec	-0.032518312
252	0x3d9ccaaf	0.07655846
253	0xbd70036f	-0.058597025
254	0xbcb9167f	-0.022593735
255	0x3d21add9	0.039472435

linear2.bias f4 [100]
0	0xbba0171d	-0.004885568
1	0x3d62d44f	0.055378255
2	0x3c926643	0.017871028
3	0x3d3c6c55	0.04600175
4	0x3c51ab1e	0.012797145
5	0xbd432cd6	-0.04765018
6	0xbc9fd2b2	-0.019509647
7	0xbcd93c2f	-0.026517956
8	0x3d247c83	0.040157806
9	0xbc37ac9f	-0.01121059
10	0x3cf70a61	0.030156316
11	0xbc906e4c	-0.017630719
12	0x3d63607c	0.055511937
13	0xbce15ad4	-0.02750913
14	0x3d3b99b6	0.045800887
15	0x3cc5a929	0.024128513
16	0xbd51ab12	-0.051188536
17	0x3cdc9acf	0.026929287
18	0xbb710d7c	-0.003678172
19	0xbd618fab	-0.055068653
20	0xbb82e118	-0.0039941184
21	0xbd434930	-0.04767722
22	0x3cf8b2b5	0.030358652
23	0xbae70bcf	-0.0017627421
24	0xbcf10de7	-0.029425574
25	0xbd18a2e4	-0.03726472
26	0x3ca015b0	0.019541591
27	0xbbb2a9ec	-0.005452385
28	0x3c2f98cd	0.010717583
29	0xbc99f765	-0.018794725
30	0xbcc30b69	-0.023809152
31	0xbd000f3e	-0.031264536
32	0x3d9f4807	0.0777741
33	0xbd0285e4	-0.03186597
34	0xbb613402	-0.0034363274
35	0x3c51c381	0.012802959
36	0xbd314a7b	-0.04328392
37	0xbd0fb17b	-0.035081368
38	0x3c8cb7c4	0.01717747
39	0xbcec26ea	-0.02882715
40	0x3d0d1feb	0.034454267
41	0xbd2fac85	-0.042889137
42	0x3d4337f4	0.047660783
43	0xbd033b58	-0.032039016
44	0x3d912392	0.070868626
45	0xbd0cded7	-0.034392204
46	0x3cf8400b	0.030303976
47	0xba393cd7	-0.0007066256
48	0x3d866d98	0.06563872
49	0x3d934520	0.07190919
50	0x3dac65cc	0.08417854
51	0xbbe9ca33	-0.0071346997
52	0xbc0acbfa	-0.008471483
53	0x3d8f97e1	0.070113905
54	0x3d4c5c0e	0.049892478
55	0x3c893d06	0.016752731
56	0xbca873c3	-0.020563012
57	0x3c391203	0.011295798
58	0xbd13f72f	-0.036124405
59	0xbd2c3195	-0.042039473
60	0xba4b8eec	-0.00077651325
61	0x3d9eafc1	0.07748366
62	0x3a67be19	0.00088402774
63	0xbd4a2a58	-0.04935679
64	0x3c6d4cd5	0.01448365
65	0x3d3c2643	0.045934927
66	0x3cb51882	0.022106413
67	0xbcbb8ffe	-0.02289581
68	0x3d28e93d	0.04123806
69	0x3d661bbe	0.0561788
70	0x3b51b1a0	0.0031996742
71	0x3d156cb3	0.036480617
72	0x3d56191e	0.052270047
73	0x3d18e99e	0.03733217
74	0x3d630a89	0.05542997
75	0x3bd1bbef	0.0064005773
76	0x3d2de54e	0.04245501
77	0xbd228102	-0.039673813
78	0xbc3a9c27	-0.011389769
79	0x3d052b38	0.03251192
80	0xbd45b218	-0.048265547
81	0x3d6c595d	0.05770241
82	0xbc9bde3f	-0.019026874
83	0x3d441bbd	0.047878016
84	0x3d58f766	0.052970313
85	0xbd1f12b1	-0.038836185
86	0x3dbe9401	0.09305573
87	0xbcca7a48	-0.024716511
88	0x3d4b8857	0.04969057
89	0x3c9a0a3f	0.018803714
90	0xbc6d4ea9	-0.014484086
91	0x3d915d77	0.07097905
92	0x3d040453	0.032230686
93	0x3d560cda	0.05225835
94	0x3d26a335	0.04068299
95	0x3b18787b	0.0023265171
96	0x3ccce4b8	0.025011405
97	0x3d539247	0.051653173
98	0xbcd09cc0	-0.02546537
99	0xbccfe62d	-0.025378311
